…
2021-05-27 14:07:36.278782: I tensorflow/core/platform/cpu_feature_guard.cc:142] This TensorFlow binary is optimized with oneAPI Deep Neural Network Library (oneDNN) to use the following CPU instructions in performance-critical operations:  AVX AVX2
To enable them in other operations, rebuild TensorFlow with the appropriate compiler flags.
WARNING:tensorflow:Please add `keras.layers.InputLayer` instead of `keras.Input` to Sequential model. `keras.Input` is intended to be used by Functional model.
Model: "sequential"
_________________________________________________________________
Layer (type)                 Output Shape              Param #   
=================================================================
conv2d (Conv2D)              (None, 26, 26, 32)        320       
_________________________________________________________________
conv2d_1 (Conv2D)            (None, 24, 24, 64)        18496     
_________________________________________________________________
conv2d_2 (Conv2D)            (None, 22, 22, 32)        18464     
_________________________________________________________________
conv2d_3 (Conv2D)            (None, 20, 20, 64)        18496     
_________________________________________________________________
conv2d_4 (Conv2D)            (None, 18, 18, 32)        18464     
_________________________________________________________________
conv2d_5 (Conv2D)            (None, 16, 16, 32)        9248      
_________________________________________________________________
conv2d_6 (Conv2D)            (None, 14, 14, 64)        18496     
_________________________________________________________________
conv2d_7 (Conv2D)            (None, 12, 12, 32)        18464     
_________________________________________________________________
conv2d_8 (Conv2D)            (None, 10, 10, 64)        18496     
_________________________________________________________________
conv2d_9 (Conv2D)            (None, 8, 8, 32)          18464     
_________________________________________________________________
conv2d_10 (Conv2D)           (None, 6, 6, 32)          9248      
_________________________________________________________________
conv2d_11 (Conv2D)           (None, 4, 4, 64)          18496     
_________________________________________________________________
conv2d_12 (Conv2D)           (None, 2, 2, 32)          18464     
_________________________________________________________________
flatten (Flatten)            (None, 128)               0         
_________________________________________________________________
dropout (Dropout)            (None, 128)               0         
_________________________________________________________________
dense (Dense)                (None, 10)                1290      
=================================================================
Total params: 204,906
Trainable params: 204,906
Non-trainable params: 0
_________________________________________________________________
2021-05-27 14:07:36.385029: I tensorflow/compiler/mlir/mlir_graph_optimization_pass.cc:176] None of the MLIR Optimization Passes are enabled (registered 2)
Epoch 1/15
422/422 [==============================] - 93s 220ms/step - loss: 0.5920 - accuracy: 0.8081 - val_loss: 0.1011 - val_accuracy: 0.9692
…
