…
2021-05-27 18:39:40.416389: I tensorflow/core/platform/cpu_feature_guard.cc:142] This TensorFlow binary is optimized with oneAPI Deep Neural Network Library (oneDNN) to use the following CPU instructions in performance-critical operations:  AVX AVX2
To enable them in other operations, rebuild TensorFlow with the appropriate compiler flags.
WARNING:tensorflow:Please add `keras.layers.InputLayer` instead of `keras.Input` to Sequential model. `keras.Input` is intended to be used by Functional model.
Model: "sequential"
_________________________________________________________________
Layer (type)                 Output Shape              Param #   
=================================================================
flatten (Flatten)            (None, 784)               0         
_________________________________________________________________
dropout (Dropout)            (None, 784)               0         
_________________________________________________________________
dense (Dense)                (None, 250)               196250    
_________________________________________________________________
dropout_1 (Dropout)          (None, 250)               0         
_________________________________________________________________
dense_1 (Dense)              (None, 210)               52710     
_________________________________________________________________
dropout_2 (Dropout)          (None, 210)               0         
_________________________________________________________________
dense_2 (Dense)              (None, 210)               44310     
_________________________________________________________________
dropout_3 (Dropout)          (None, 210)               0         
_________________________________________________________________
dense_3 (Dense)              (None, 210)               44310     
_________________________________________________________________
dense_4 (Dense)              (None, 180)               37980     
_________________________________________________________________
dropout_4 (Dropout)          (None, 180)               0         
_________________________________________________________________
dense_5 (Dense)              (None, 10)                1810      
=================================================================
Total params: 377,370
Trainable params: 377,370
Non-trainable params: 0
_________________________________________________________________
Epoch 1/15
2021-05-27 18:39:40.488260: I tensorflow/compiler/mlir/mlir_graph_optimization_pass.cc:176] None of the MLIR Optimization Passes are enabled (registered 2)
422/422 [==============================] - 2s 4ms/step - loss: 1.4666 - accuracy: 0.5805 - val_loss: 0.5443 - val_accuracy: 0.9282
…
