…
2021-05-27 18:30:39.517911: I tensorflow/core/platform/cpu_feature_guard.cc:142] This TensorFlow binary is optimized with oneAPI Deep Neural Network Library (oneDNN) to use the following CPU instructions in performance-critical operations:  AVX AVX2
To enable them in other operations, rebuild TensorFlow with the appropriate compiler flags.
WARNING:tensorflow:Please add `keras.layers.InputLayer` instead of `keras.Input` to Sequential model. `keras.Input` is intended to be used by Functional model.
Model: "sequential"
_________________________________________________________________
Layer (type)                 Output Shape              Param #   
=================================================================
flatten (Flatten)            (None, 784)               0         
_________________________________________________________________
dropout (Dropout)            (None, 784)               0         
_________________________________________________________________
dense (Dense)                (None, 80)                62800     
_________________________________________________________________
dropout_1 (Dropout)          (None, 80)                0         
_________________________________________________________________
dense_1 (Dense)              (None, 80)                6480      
_________________________________________________________________
dense_2 (Dense)              (None, 80)                6480      
_________________________________________________________________
dropout_2 (Dropout)          (None, 80)                0         
_________________________________________________________________
dense_3 (Dense)              (None, 80)                6480      
_________________________________________________________________
dense_4 (Dense)              (None, 80)                6480      
_________________________________________________________________
dropout_3 (Dropout)          (None, 80)                0         
_________________________________________________________________
dense_5 (Dense)              (None, 10)                810       
=================================================================
Total params: 89,530
Trainable params: 89,530
Non-trainable params: 0
_________________________________________________________________
2021-05-27 18:30:39.589000: I tensorflow/compiler/mlir/mlir_graph_optimization_pass.cc:176] None of the MLIR Optimization Passes are enabled (registered 2)
Epoch 1/15
422/422 [==============================] - 2s 3ms/step - loss: 1.4699 - accuracy: 0.5169 - val_loss: 0.4452 - val_accuracy: 0.9160
…
