…
2021-05-28 14:14:46.375117: I tensorflow/core/platform/cpu_feature_guard.cc:142] This TensorFlow binary is optimized with oneAPI Deep Neural Network Library (oneDNN) to use the following CPU instructions in performance-critical operations:  AVX AVX2
To enable them in other operations, rebuild TensorFlow with the appropriate compiler flags.
WARNING:tensorflow:Please add `keras.layers.InputLayer` instead of `keras.Input` to Sequential model. `keras.Input` is intended to be used by Functional model.
Model: "sequential"
_________________________________________________________________
Layer (type)                 Output Shape              Param #   
=================================================================
conv2d (Conv2D)              (None, 28, 28, 32)        320       
_________________________________________________________________
max_pooling2d (MaxPooling2D) (None, 14, 14, 32)        0         
_________________________________________________________________
conv2d_1 (Conv2D)            (None, 14, 14, 64)        18496     
_________________________________________________________________
dropout (Dropout)            (None, 14, 14, 64)        0         
_________________________________________________________________
max_pooling2d_1 (MaxPooling2 (None, 7, 7, 64)          0         
_________________________________________________________________
conv2d_2 (Conv2D)            (None, 7, 7, 64)          36928     
_________________________________________________________________
dropout_1 (Dropout)          (None, 7, 7, 64)          0         
_________________________________________________________________
max_pooling2d_2 (MaxPooling2 (None, 4, 4, 64)          0         
_________________________________________________________________
conv2d_3 (Conv2D)            (None, 4, 4, 64)          36928     
_________________________________________________________________
max_pooling2d_3 (MaxPooling2 (None, 2, 2, 64)          0         
_________________________________________________________________
conv2d_4 (Conv2D)            (None, 2, 2, 64)          36928     
_________________________________________________________________
max_pooling2d_4 (MaxPooling2 (None, 1, 1, 64)          0         
_________________________________________________________________
conv2d_5 (Conv2D)            (None, 1, 1, 64)          36928     
_________________________________________________________________
dropout_2 (Dropout)          (None, 1, 1, 64)          0         
_________________________________________________________________
max_pooling2d_5 (MaxPooling2 (None, 1, 1, 64)          0         
_________________________________________________________________
flatten (Flatten)            (None, 64)                0         
_________________________________________________________________
dropout_3 (Dropout)          (None, 64)                0         
_________________________________________________________________
dense (Dense)                (None, 10)                650       
=================================================================
Total params: 167,178
Trainable params: 167,178
Non-trainable params: 0
_________________________________________________________________
2021-05-28 14:14:47.258971: I tensorflow/compiler/mlir/mlir_graph_optimization_pass.cc:176] None of the MLIR Optimization Passes are enabled (registered 2)
Epoch 1/15
422/422 [==============================] - 23s 54ms/step - loss: 0.6510 - accuracy: 0.7852 - val_loss: 0.1086 - val_accuracy: 0.9690
…
